data.pth (torch, 7831 bytes, 6 tensors)

l1.weight f4 [20, 38]
-0.17452098 -0.028675713 0.008818206 0.34010074 -0.020464193 0.24519154 -0.230965 0.2685891
-0.03986228 0.27768323 0.04555039 0.1267178 -0.24080841 0.30496648 -0.23087019 0.5032271
0.14121287 0.4259676 0.23742391 0.41557518 0.3857969 0.21134678 -0.21566778 0.25930208
-0.1372804 -0.03105435 0.25191134 0.3042452 -0.12884405 0.3295791 -0.2308604 -0.1975781
0.18449055 -0.14161564 0.048009805 0.037326653 0.41878137 0.11364671 -0.0388547 -0.09221736
0.23588711 0.28322104 0.119603515 -0.026578048 -0.0720615 0.13961244 0.10144395 0.08653023
0.08114993 0.01709136 -0.16091925 0.27249324 -0.2595543 0.4114102 0.055638116 0.13490087
0.38625714 0.3965609 0.41739652 0.05891381 -0.13440008 0.11691503 0.061179023 0.13945894
0.013709881 0.17074776 -0.07780104 0.056955542 -0.3446124 -0.26651064 0.08477921 -0.048917845
0.14841434 0.17378177 0.08908436 0.12446543 0.044599164 0.23126833 0.08654464 0.20020212
-0.0033393623 0.102531575 0.4493763 -0.0139684845 0.22731838 0.056223683 0.10201918 -0.085572466
0.09204735 0.013096469 0.3025802 0.25722626 -0.17341365 0.2866305 0.24235193 0.29045492
-0.039582785 0.15954085 0.19069213 0.06312663 0.27103934 0.004396466 0.18434636 0.023885183
0.11106546 0.09283318 -0.42479932 -0.123462684 0.11344512 0.089975335 0.21429819 0.003977221
0.166167 0.12427025 -0.08413843 -0.14384274 0.22116488 -0.089689836 -0.11362052 -0.011770137
-0.28229958 0.03614011 0.15369558 -0.07481779 0.20545541 0.02468286 -0.08733334 0.39674336
-0.25570717 0.29978818 0.095437415 0.34058776 0.37183425 0.39791045 -0.14227654 0.14881374
-0.107538335 -0.095079914 0.031026646 -0.11280848 -0.17692375 0.16299047 -0.11535395 -0.29781094
-0.23260425 -0.28590706 0.3415847 -0.08995572 -0.0912429 0.14928895 0.15850036 -0.059525862
0.0639526 0.10370863 0.109235406 -0.041741777 0.18054461 0.16653346 0.19446148 0.24928713
0.07105383 0.25823143 0.2938278 0.22260077 0.038985547 0.19538502 0.24829495 0.36529875
0.32702255 0.16882408 0.37023318 0.17300548 0.049460974 0.20810899 -0.07660225 0.013550629
-0.03688801 0.033165827 0.036752332 0.28504243 0.10338757 0.054043163 0.38454854 0.062373735
0.28368333 0.078241915 0.14344484 0.18546112 0.2684622 0.2852297 -0.10289595 -0.1103059
-0.09256194 -0.20912422 0.07219664 0.26743886 -0.055999324 0.29601467 -0.012082828 0.11419387
-0.09482894 0.24485591 -0.026904771 0.10440873 -0.056028344 -0.045960903 0.32469276 -0.09614761
0.044612087 -0.14115338 0.25064507 0.3135781 -0.22102016 0.23394325 -0.091939226 -0.13861398
0.15738034 0.3228123 -0.11120227 0.38463804 -0.19186209 -0.27781785 -0.14700219 -0.10663216
-0.15184274 -0.009002725 0.42604274 0.27623898 0.37244758 0.09326084 -0.069789715 -0.12713772
0.3279436 0.16584997 -0.18095554 -0.15807438 -0.13125172 -0.36918387 -0.0631315 0.034704216
0.14454739 0.07686804 -0.20391877 -0.08998574 0.2676351 -0.13601598 -0.15984853 0.10531776
-0.22846735 0.25042316 -0.17634611 0.050547227 0.25212353 -0.12978756 0.08747256 -0.26204705
00000000: a1b5 32be 54e9 eabc 3d7a 103c af21 ae3e
00000010: 86a4 a7bc 7e13 7b3e 1782 6cbe 8384 893e
00000020: a146 23bd 7f2c 8e3e 0c93 3a3d 50c2 013e
00000030: 7b96 76be 9124 9c3e 3c69 6cbe 7ed3 003f
00000040: 1b9a 103e 6d18 da3e 411f 733e 45c6 d43e
00000050: 2c87 c53e 4a6b 583e 04d8 5cbe 3ec3 843e
00000060: 3c93 0cbe b165 febc 86fa 803e 07c6 9b3e
00000070: b2ef 03be 97be a83e ab66 6cbe ea51 4abe
00000080: 17eb 3c3e b103 11be eea5 443d d5e3 183d
00000090: 836a d63e 9bbf e83d 1b26 1fbd 75dc bcbd
000000a0: 648c 713e 5902 913e b0f2 f43d 35ba d9bc
000000b0: fb94 93bd 90f6 0e3e d8c1 cf3d c336 b13d
000000c0: ef31 a63d 2e03 8c3c 04c8 24be 3c84 8b3e
000000d0: 4de4 84be 5ca4 d23e cbe4 633d 7423 0a3e
000000e0: 7fc3 c53e 080a cb3e ffb4 d53e 9b4f 713d
000000f0: 2da0 09be 2671 ef3d db96 7a3d 53ce 0e3e
00000100: 699f 603c 80d8 2e3e 2756 9fbd 374a 693d
00000110: 0971 b0be 1574 88be b9a0 ad3d 145e 48bd
00000120: eef9 173e d9f3 313e dc71 b63d bbe7 fe3d
00000130: 9dad 363d 9bd1 6c3e 513e b13d c901 4d3e
00000140: 34d9 5abb 13fc d13d a714 e63e 12dc 64bc
00000150: 26c6 683e ce4a 663d 6fef d03d 9e40 afbd
00000160: 5283 bc3d 9392 563c cbeb 9a3e 29b3 833e
00000170: 5993 31be 3cc1 923e 1b2b 783e 82b6 943e
00000180: 8f21 22bd ad5e 233e cc44 433e 8948 813d
00000190: abc5 8a3e 3b10 903b 4bc5 3c3e dcaa c33c
000001a0: 4a76 e33d 531f be3d 4c7f d9be 01da fcbd
000001b0: ea55 e83d fd44 b83d fc70 5b3e 5953 823b
000001c0: af27 2a3e 6781 fe3d c550 acbd 834b 13be
000001d0: 0c79 623e 4eaf b7bd e0b1 e8bd 88d7 40bc
000001e0: 9289 90be a707 143d 6062 1d3e 123a 99bd
000001f0: e762 523e b633 ca3c d2db b2bd f221 cb3e
00000200: 0dec 82be d67d 993e b174 c33d 8561 ae3e
00000210: 0f61 be3e ebba cb3e f1b0 11be a162 183e
00000220: 0f3d dcbd 42b9 c2bd 982b fe3c 2208 e7bd
00000230: 802b 35be f9e6 263e b13e ecbd ad7a 98be
00000240: cf2f 6ebe 6962 92be 31e4 ae3e b43a b8bd
00000250: 8fdd babd 34df 183e eb4d 223e 64d1 73bd
00000260: 95f9 823d 3165 d43d d0b6 df3d 6df9 2abd
00000270: b0e0 383e bf87 2a3e e920 473e 2045 7f3e
00000280: ac84 913d e936 843e 9970 963e 75f1 633e
00000290: 4faf 1f3d 0313 483e 0841 7e3e 7008 bb3e
000002a0: 806f a73e 38e0 2c3e 348f bd3e 5928 313e
000002b0: 9797 4a3d 861a 553e a4e1 9cbd 7503 5e3c
000002c0: e217 17bd e4d8 073d 9d89 163d 15f1 913e
000002d0: ddbc d33d 5d5c 5d3d 8ce3 c43e 9a7b 7f3d
000002e0: f13e 913e 4c3d a03d 34e3 123e 85e9 3d3e
000002f0: e173 893e a109 923e 1dbb d2bd 0fe8 e1bd
00000300: 1d91 bdbd a924 56be d5db 933d bfed 883e
00000310: 8c5f 65bd 3c8f 973e 0ef7 45bc 7ade e93d
00000320: ad35 c2bd 82bb 7a3e 6567 dcbc 3fd4 d53d
00000330: fa7d 65bd 8041 3cbd 213e a63e 0ae9 c4bd
00000340: 2abb 363d 838a 10be 8d54 803e 4f8d a03e
00000350: 1c53 62be d28e 6f3e a24a bcbd d3f0 0dbe
00000360: 5028 213e a747 a53e 04be e3bd 47ef c43e
00000370: 7f77 44be 243e 8ebe be87 16be f661 dabd
00000380: aa7c 1bbe 2a80 13bc 4622 da3e 326f 8d3e
00000390: 73b1 be3e 8aff be3d e9ed 8ebd 6430 02be
000003a0: 39e8 a73e 93d4 293e 694c 39be 40de 21be
000003b0: da66 06be ab05 bdbe 164b 81bd 0226 0e3d
000003c0: 3b04 143e fe6c 9d3d 15d0 50be 724a b8bd
000003d0: 7807 893e c647 0bbe 55af 23be d6b0 d73d
000003e0: 58f3 69be 7737 803e 1394 34be 9c0a 4f3d
000003f0: 5616 813e 08e7 04be d024 b33d 082b 86be

l1.bias f4 [20]
0.23085926 0.26196244 0.3994027 0.28215197 0.61728644 0.0559996 0.26148003 0.346505
0.2052426 0.3814701 0.22788237 0.14277852 0.23501 0.26149553 0.3804969 0.2827518
0.46487105 0.47869396 0.31925032 -0.19239572
00000000: 5f66 6c3e f11f 863e 837e cc3e 3976 903e
00000010: 7c06 1e3f d65f 653d b6e0 853e 1a69 b13e
00000020: 1e2b 523e 0d50 c33e ff59 693e 8834 123e
00000030: 76a6 703e bee2 853e 7dd0 c23e d8c4 903e
00000040: 9403 ee3e 6017 f53e c774 a33e 6203 45be

l2.weight f4 [20, 20]
0.28412554 0.23430564 0.42504522 0.13992436 0.065325774 0.12293883 -0.41993368 0.5785993
0.26042032 0.44517466 -0.1614166 0.16995727 0.42399478 0.5570979 -0.25822383 0.36913672
0.18649103 -0.088563524 0.6391411 0.20544778 -0.038827628 0.40374953 0.3697114 -0.17378762
0.3573672 0.20695652 -0.025237639 0.56347936 0.46791622 -0.32500032 0.0490283 0.17015018
0.34364387 -0.013516399 -0.63902617 -0.47125092 -0.5211385 0.41696796 0.26345578 0.06698943
0.54916024 0.52219164 0.4168583 0.24164927 0.16013041 0.30970445 -0.25511563 0.39445034
0.34971225 0.30028075 0.055027008 0.33164632 0.4275794 0.35622114 -0.33156118 0.5430405
-0.076640755 0.075251035 0.3847752 -0.08133233 -0.20643373 0.27242333 0.3767195 0.46013087
0.24267487 -0.16586088 0.37138894 0.4037221 -0.18014666 0.10691934 -0.33244032 -0.4242361
0.2773246 0.22764541 0.54386157 0.39854443 0.5851823 -0.02818957 0.38636792 -0.1031004
0.38595647 0.494722 0.4321814 0.5509496 0.17982335 0.490915 -0.036945783 -0.32686546
0.16248728 0.6763099 0.19291115 0.29690728 -0.29064202 0.43200722 -0.19040665 0.524213
0.09311596 -0.18228702 -0.22095296 -0.14981472 0.50394803 0.5159212 0.5822891 0.38444752
-0.019801784 -0.254 -0.43620956 0.6121204 0.0963211 0.46602142 -0.3997741 -0.16261706
0.39567056 0.58271784 0.14171973 0.25707695 0.16383338 -0.11014584 0.2849097 -0.08080671
0.41242635 0.6076337 0.7598646 0.46518746 0.29041314 -0.14639974 -0.1425466 0.4280224
0.1429418 0.3299395 -0.36714348 0.42263767 0.42775917 0.40230253 -0.017413441 0.22510785
-0.14219978 -0.074834436 0.6277754 -0.17775095 -0.11985974 -0.4250689 -0.17550924 -0.19906363
0.21294323 0.005714484 0.5130268 -0.16159883 -0.26130286 -0.18076165 0.24588856 -0.2992732
-0.016059496 -0.11903318 0.49211705 -0.4773266 0.569932 0.35718048 -0.082804635 0.020694382
-0.48739693 -0.37504044 0.3232907 -0.42842788 0.15315542 -0.21520694 0.45426106 0.47783005
0.33817554 -0.5676638 0.41938788 -0.16755739 0.27550328 -0.14848877 0.26114312 -0.54995006
0.32388654 0.58052206 0.39475688 -0.15571257 0.42776924 0.33494586 0.2726096 0.48293886
0.13780406 0.086462885 -0.24896428 0.08317738 0.03401591 0.40344214 0.0360055 -0.006442573
-0.028397538 0.60226464 -0.1115585 0.41866112 0.01703959 -0.26074964 0.00675272 -0.14391923
0.16917342 -0.23228022 0.14800298 -0.21569228 -0.1766601 -0.15471055 0.16400573 0.08439303
0.16685936 0.0073459167 0.09935498 -0.10250328 -0.19874749 0.14174435 -0.1617624 0.14468576
0.07662754 0.0096824765 -0.18855461 0.02084705 0.31718817 0.17882322 -0.042437695 0.33446178
0.49578887 0.27987787 0.5374344 -0.52107024 0.03578187 0.6134078 0.34337932 0.16018026
-0.3817052 0.23024063 0.6293933 0.29529873 0.3861101 0.35309738 -0.39134032 -0.13048181
0.4148325 -0.08577055 -0.17092851 0.073923096 0.45247844 0.19738236 0.24765797 -0.44144768
0.28780282 -0.015269094 0.39248002 0.5343978 -0.20581076 -0.45127943 0.14339502 -0.33317345
00000000: e778 913e d1ed 6f3e 879f d93e 5548 0f3e
00000010: 85c9 853d 5ac7 fb3d 8c01 d7be 151f 143f
00000020: d055 853e efed e33e 654a 25be 4709 2e3e
00000030: d815 d93e f89d 0e3f ea35 84be 7dff bc3e
00000040: 81f7 3e3e cb60 b5bd c09e 233f e760 523e
00000050: b809 1fbd 42b8 ce3e d04a bd3e 62f5 31be
00000060: d5f8 b63e 69ec 533e 2abf cebc 2f40 103f
00000070: b792 ef3e 7166 a6be e6d1 483d d93b 2e3e
00000080: 17f2 af3e e373 5dbc 3897 23bf cd47 f1be
00000090: 5569 05bf d37c d53e ade3 863e c131 893d
000000a0: c495 0c3f 5aae 053f 736e d53e e872 773e
000000b0: 3af9 233e 9591 9e3e 849e 82be 65f5 c93e
000000c0: 7c0d b33e 66be 993e 0064 613d 8ccd a93e
000000d0: b0eb da3e 9e62 b63e 63c2 a9be b404 0b3f
000000e0: d4f5 9cbd 371d 9a3d 4101 c53e 9191 a6bd
000000f0: 5d63 53be 127b 8b3e 61e1 c03e 4696 eb3e
00000100: c37f 783e 6fd7 29be b126 be3e aab4 ce3e
00000110: 5e78 38be 87f8 da3d 9e35 aabe 7935 d9be
00000120: 7dfd 8d3e e11b 693e 833a 0b3f 040e cc3e
00000130: 82ce 153f d0ed e6bc 04d2 c53e 4d26 d3bd
00000140: 169c c53e 344c fd3e e146 dd3e 080b 0d3f
00000150: 9d23 383e 3659 fb3e 7654 17bd e95a a7be
00000160: 1163 263e a522 2d3f 808a 453e 3b04 983e
00000170: 08cf 94be 0d30 dd3e f6f9 42be d332 063f
00000180: 95b3 be3d 73a9 3abe 7e41 62be 0869 19be
00000190: bd02 013f 6913 043f e610 153f 4ed6 c43e
000001a0: 5a37 a2bc 4a0c 82be dc56 dfbe ecb3 1c3f
000001b0: ff43 c53d 5c9a ee3e 31af ccbe 1685 26be
000001c0: 5595 ca3e ff2c 153f fa1e 113e 979f 833e
000001d0: f0c3 273e 2494 e1bd afdf 913e fd7d a5bd
000001e0: 8c29 d33e e28d 1b3f 7d86 423f 0d2d ee3e
000001f0: 08b1 943e d0e9 15be bcf7 11be c125 db3e
00000200: 565f 123e d5ed a83e 3bfa bbbe f763 d83e
00000210: 4003 db3e 99fa cd3e a2a6 8ebc ac82 663e
00000220: d29c 11be cc42 99bd e3b5 203f 5804 36be
00000230: 0679 f5bd a2a2 d9be b2b8 33be 56d7 4bbe
00000240: ca0d 5a3e 9140 bb3b b955 033f 2a7a 25be
00000250: 7dc9 85be 9519 39be 36ca 7b3e 563a 99be
00000260: 348f 83bc abc7 f3bd c4f6 fb3e 2764 f4be
00000270: 10e7 113f 5ce0 b63e 7a95 a9bd 4487 a93c
00000280: 178c f9be 4d05 c0be 5c86 a53e e65a dbbe
00000290: c6d4 1c3e 355f 5cbe e894 e83e 24a6 f43e
000002a0: 5825 ad3e 6a52 11bf 02ba d63e 2a94 2bbe
000002b0: c40e 8d3e 710d 18be 8db4 853e 87c9 0cbf
000002c0: 75d4 a53e 189d 143f 931d ca3e 1e73 1fbe
000002d0: 9204 db3e 067e ab3e 7c93 8b3e c343 f73e
000002e0: 821c 0d3e 7413 b13d 7ef0 7ebe e758 aa3d
000002f0: 4454 0b3d f88f ce3e 817a 133d 381c d3bb
00000300: f4a1 e8bc 042e 1a3f c878 e4bd c05a d63e
00000310: 9c96 8b3c fa80 85be ec45 dd3b 905f 13be
00000320: cc3b 2d3e deda 6dbe 188e 173e 70de 5cbe
00000330: 63e6 34be 716c 1ebe 1ef1 273e 41d6 ac3d
00000340: 2edd 2a3e 04b6 f03b a07a cb3d 3ded d1bd
00000350: 7684 4bbe 6e25 113e 0ba5 25be 8128 143e
00000360: e6ee 9c3d 40a3 1e3c 7614 41be 6fc7 aa3c
00000370: 7d66 a23e 6f1d 373e 26d3 2dbd 933e ab3e
00000380: 0ad8 fd3e 274c 8f3e 4d95 093f dc64 05bf
00000390: 0390 123d 4b08 1d3f 6acf af3e 4b06 243e
000003a0: dd6e c3be 33c4 6b3e eb1f 213f 6531 973e
000003b0: 39b0 c53e 2ec9 b43e c25d c8be 069d 05be
000003c0: ed64 d43e 78a8 afbd e207 2fbe fe64 973d
000003d0: 41ab e73e 9a1e 4a3e 0d9a 7d3e 6e05 e2be
000003e0: e45a 933e 392b 7abc 24f3 c83e 4bce 083f
000003f0: 0ec0 52be 190e e7be 25d6 123e b695 aabe

l2.bias f4 [20]
0.30282658 0.2416455 0.1462565 0.3025988 -0.033094406 0.22835806 0.09493099 0.001985228
0.3283755 0.28474703 -0.13261458 0.18853636 0.049932078 0.42125756 0.33211038 0.14047915
0.28685042 0.25799853 -0.07611809 -0.1448323
00000000: 160c 9b3e eb71 773e 44c4 153e 3bee 9a3e
00000010: 008e 07bd b2d6 693e 2e6b c23d 991a 023b
00000020: d520 a83e 5dca 913e 1ecc 07be ad0f 413e
00000030: 9485 4c3d 12af d73e 5f0a aa3e c4d9 0f3e
00000040: 0fde 923e 6218 843e cde3 9bbd eb4e 14be

l3.weight f4 [5, 20]
0.27734947 0.4996658 0.1804856 0.14448188 -0.7196368 0.2651305 0.20895247 -0.2798941
0.43954644 0.010815903 0.0057952036 -0.6408702 -0.5149634 -0.43014824 0.32798004 -0.63320196
-0.50826436 0.48955408 -0.029473929 0.19213855 0.27560544 -0.469025 0.22782911 0.26532674
0.29893 0.4363895 0.25313506 -0.39132223 -0.65067273 0.22870865 0.11642749 0.15510741
-0.62466896 -0.121605836 0.31882432 -0.3200199 0.5704891 -0.94236803 -0.03951121 0.17183644
-0.26509225 -0.41859865 -0.22524562 -0.45317495 -0.39523774 -0.12318362 -0.4521954 -0.1124632
-0.24707247 -0.21677244 -0.017485196 -0.45165837 -0.18461879 -0.3576793 -0.40416315 -0.0022865257
-0.015607339 -0.7335321 -0.0075550918 -0.17609118 -0.009395679 0.22254042 0.19484779 -0.6223532
0.46436617 -0.06417701 -0.043417078 -0.5266793 -0.34476608 0.08687456 -0.13639493 0.16602626
0.26074135 0.21385664 -0.59067255 0.3672677 -0.59371585 -0.14774317 -0.21597351 0.08199145
-0.43192098 -0.5916575 -0.5576485 0.24111049 -0.79513747 -0.37198114 -0.5719998 0.6246893
0.5263165 -0.15492533 0.17141457 0.116172254 0.18534556 0.3591341 0.37344304 0.16418436
0.23846407 0.07127757 0.092126876 0.11928182
00000000: c000 8e3e 32d4 ff3e 38d1 383e 0ff3 133e
00000010: 1e3a 38bf 2fbf 873e a3f7 553e 484e 8fbe
00000020: 3b0c e13e 2f35 313c b1e5 bd3b 1210 24bf
00000030: a4d4 03bf 643c dcbe 00ed a73e 8619 22bf
00000040: 9d1d 02bf d5a6 fa3e 4f73 f1bc f8bf 443e
00000050: 281c 8d3e 0b24 f0be 094c 693e e8d8 873e
00000060: 5a0d 993e 726e df3e eb9a 813e 635b c8be
00000070: 7d92 26bf 9a32 6a3e 8971 ee3d 7ad4 1e3e
00000080: 4eea 1fbf 7b0c f9bd f13c a33e a6d9 a3be
00000090: 930b 123f 083f 71bf 82d6 21bd e4f5 2f3e
000000a0: 2cba 87be 9052 d6be caa6 66be 8c06 e8be
000000b0: 9a5c cabe b247 fcbd 2886 e7be 1b53 e6bd
000000c0: 9100 7dbe 98f9 5dbe 1d3d 8fbc c43f e7be
000000d0: b50c 3dbe be21 b7be 79ee cebe 89d9 15bb
000000e0: edb5 7fbc c2c8 3bbf b490 f7bb 3f51 34be
000000f0: 56f0 19bc a3e1 633e 2e86 473e 8a52 1fbf
00000100: 67c1 ed3e 3c6f 83bd 1bd6 31bd 74d4 06bf
00000110: 2e85 b0be 4aeb b13d 1dab 0bbe ca02 2a3e
00000120: e47f 853e 3cfd 5a3e 5136 17bf 830a bc3e
00000130: c3fd 17bf fc49 17be 2928 5dbe 22eb a73d
00000140: bf24 ddbe de76 17bf 0dc2 0ebf abe5 763e
00000150: 218e 4bbf 5074 bebe 946e 12bf a3eb 1f3f
00000160: aebc 063f bfa4 1ebe 4d87 2f3e b8eb ed3d
00000170: 3acb 3d3e 6de0 b73e ed33 bf3e f21f 283e
00000180: ed2f 743e faf9 913d 04ad bc3d 074a f43d

l3.bias f4 [5]
0.19398692 0.13513526 -0.36101905 -0.06283917 0.18202372
00000000: 82a4 463e e660 0a3e 7dd7 b8be d3b1 80bd
00000010: 6d64 3a3e
